Model: "sequential_31"
_________________________________________________________________
 Layer (type)                Output Shape              Param #   
=================================================================
 conv2d_2 (Conv2D)           (None, 98, 98, 32)        896       
                                                                 
 max_pooling2d_2 (MaxPooling  (None, 49, 49, 32)       0         
 2D)                                                             
                                                                 
 conv2d_3 (Conv2D)           (None, 47, 47, 64)        18496     
                                                                 
 max_pooling2d_3 (MaxPooling  (None, 23, 23, 64)       0         
 2D)                                                             
                                                                 
 flatten_31 (Flatten)        (None, 33856)             0         
                                                                 
 dense_92 (Dense)            (None, 1024)              34669568  
                                                                 
 dense_93 (Dense)            (None, 512)               524800    
                                                                 
 dense_94 (Dense)            (None, 10)                5130      
                                                                 
=================================================================
Total params: 35,218,890
Trainable params: 35,218,890
Non-trainable params: 0
_________________________________________________________________


k#1
accuracy = 0.9055690072639225
recall = 0.9055690072639225
precision = 0.9055690072639225
fscore = 0.9055690072639225
…
